SuperResolution/srcnn_model_div2k_x2.pth (torch, 231946 bytes, 5 tensors)

conv1.weight f4 [64, 1, 9, 9]
0	0xbafb4039	-0.001916892
1	0x3d49311c	0.0491191
2	0x3c8b523c	0.017006986
3	0x3d238159	0.039918277
4	0xbd411411	-0.047138277
5	0x3c130c3e	0.008975087
6	0xbdd035a3	-0.101664804
7	0xbc723dd5	-0.01478525
8	0x3c0f8652	0.008760052
9	0xbdda7ced	-0.10668359
10	0xbc7b9b91	-0.015356914
11	0x3d81437a	0.06311698
12	0x3dce5707	0.10075193
13	0x3cbe5980	0.023236036
14	0x3d3b0a58	0.04566416
15	0xbd85fc80	-0.06542301
16	0x3d93196e	0.07182585
17	0x3d67ec0e	0.056621604
18	0x3d41d270	0.04731983
19	0x3d4e61cb	0.05038623
20	0xbdc74fc3	-0.0973201
21	0xbca43d7d	-0.020048851
22	0x3db18716	0.08668344
23	0xbc77e298	-0.015129708
24	0x3b26249a	0.0025351406
25	0x3d2dc590	0.04242474
26	0xbd90ce9f	-0.0707066
27	0x3d9f56d8	0.07780236
28	0x3dc65c12	0.0968553
29	0x3d861af0	0.06548107
30	0xbdbde46b	-0.09272083
31	0xbd158a9e	-0.03650915
32	0xbd10d393	-0.035358023
33	0x3ab2fc2a	0.0013655473
34	0x3bfcfe78	0.0077207647
35	0x3da11590	0.07865441
36	0xbd40ecd6	-0.047100864
37	0x3d823ead	0.06359611
38	0x3c911843	0.017711764
39	0xbdb52e01	-0.08846665
40	0x3dc2cb64	0.0951145
41	0xbc21c487	-0.009873516
42	0xbdbdc6d2	-0.092664376
43	0xbd829929	-0.06376869
44	0xbda37ba9	-0.07982571
45	0xbc81b237	-0.01583205
46	0xbd8e6d55	-0.06954447
47	0xbddae773	-0.10688677
48	0xbd46b308	-0.04851058
49	0xbd03d60a	-0.032186545
50	0x3d98a77b	0.07453819
51	0xbd8ba8cd	-0.068193056
52	0x3daa5560	0.08317065
53	0x3dd8693b	0.10566946
54	0x3d38dcdd	0.045132507
55	0xbcd4ccef	-0.025976626
56	0xbdd5356a	-0.104105785
57	0xbdc24557	-0.09485882
58	0x3db284ba	0.08716722
59	0x3d4fa220	0.050691724
60	0x3dd87e41	0.10570956
61	0x3dd48fd7	0.10378998
62	0xbd92dd4f	-0.071711175
63	0x3d5343c0	0.051578283
64	0xbda0d54a	-0.07853182
65	0x3d2640e7	0.04058924
66	0xbc83fb95	-0.016111175
67	0xbd7c4391	-0.061587874
68	0xbdbc82f6	-0.09204666
69	0xbcad18d2	-0.02113
70	0x3dc7296d	0.09724698
71	0xbd07eea3	-0.033186566
72	0xbdcd3a38	-0.1002087
73	0xbde3720c	-0.11105737
74	0xbc59f66c	-0.01330338
75	0x3c7e22c3	0.0155112175
76	0xbdcc83f3	-0.09986105
77	0x3db94e48	0.09048134
78	0x3d9a6278	0.07538313
79	0x3dbd3cbe	0.09240101
80	0x3db6cdaa	0.08925946
81	0x3d60bf76	0.05487009
82	0xbd8e0447	-0.069344096
83	0x3d5dc7ef	0.05414575
84	0x3d831479	0.06400389
85	0x3d80df54	0.062925965
86	0x3c4f0e3b	0.01263767
87	0xbd4275ba	-0.047475554
88	0x3c395b0f	0.011313214
89	0xbd898062	-0.0671394
90	0xbd50ab94	-0.05094488
91	0xbd5aea5b	-0.053446155
92	0x3d6e5ad4	0.05819209
93	0x3d6c2d16	0.057660185
94	0xbd0fa3fa	-0.03506849
95	0x3d928d8b	0.071559034
96	0xbc9e8b29	-0.019353466
97	0xbdd67b1c	-0.104727
98	0xbdd89b75	-0.10576526
99	0x3c834d2a	0.016028006
100	0x3cb49159	0.022041963
101	0xbd96d351	-0.07364524
102	0x3de0543a	0.10953565
103	0xbaf4f5d8	-0.001868899
104	0x3c041ab1	0.008063004
105	0xbd91fbd0	-0.071281075
106	0x3dbbdde5	0.091731824
107	0xbd71a252	-0.05899269
108	0x3de396e2	0.11112763
109	0xbd1f4884	-0.038887516
110	0x3c2b0594	0.010438342
111	0xbd11a800	-0.035560608
112	0xbcb371fe	-0.021904942
113	0x3d0ebc6e	0.03484767
114	0x3d8de36c	0.06928143
115	0x3c484e71	0.012225733
116	0xbde8e8c8	-0.113725245
117	0x3dc76089	0.097352095
118	0xbdbe6a3c	-0.09297606
119	0xbd309db8	-0.043119162
120	0x3d6b5ee0	0.057463527
121	0x3dd61a93	0.104542874
122	0x3d2dba54	0.042414024
123	0xbd85d528	-0.06534797
124	0xbcdb6f6d	-0.02678653
125	0x3c78a637	0.015176347
126	0x3da6b7a9	0.08140499
127	0xbd520f1b	-0.051283937
128	0xbc958fec	-0.018257104
129	0xbcaf8270	-0.021424502
130	0xbd403dfb	-0.04693411
131	0xbdd2e5a8	-0.1029771
132	0xbc465162	-0.012104364
133	0x3dd010f8	0.101594865
134	0xbc35cb04	-0.011095766
135	0xbcf86c64	-0.030325122
136	0xbcd04328	-0.025422648
137	0x3cc76b32	0.024343107
138	0x3adc9ca7	0.0016831354
139	0xba8fda17	-0.001097503
140	0x3dbe87f8	0.09303278
141	0x3d87d597	0.06632536
142	0xbd834440	-0.06409502
143	0xbd6782fd	-0.056521405
144	0x3d461b7c	0.048366055
145	0xbd81038f	-0.06299507
146	0x3dd5087e	0.104020104
147	0x3db358c5	0.08757166
148	0xbdd6ebe9	-0.10494215
149	0x3c215b0c	0.009848367
150	0xbd14c06f	-0.03631633
151	0xbd88d858	-0.06681889
152	0xbd378bcf	-0.044811066
153	0xbd8a24a8	-0.06745273
154	0x3c94775d	0.018123323
155	0xbd2313cd	-0.039813805
156	0x3de67667	0.11253052
157	0xbd216f8a	-0.039413013
158	0x3cf22e0d	0.029562974
159	0xbc85c7f8	-0.016330704
160	0x3dd918ce	0.10600434
161	0xbdddb32a	-0.108251885
162	0xbd90d8a4	-0.07072571
163	0x3d72118e	0.059098773
164	0x3cc1a4b3	0.023638105
165	0x3beba130	0.007190846
166	0x3db342ef	0.08753001
167	0xbd429289	-0.047503028
168	0x3ce518b0	0.027965873
169	0xbd6bf4ac	-0.057606384
170	0x3d06ae3a	0.032881
171	0xbda5b2c8	-0.080907404
172	0xbd3f8843	-0.04676081
173	0xbd9a704c	-0.0754095
174	0xbd9d0b35	-0.07668153
175	0x3ce1dbb2	0.02757058
176	0xbdc758aa	-0.09733708
177	0x3d6071e7	0.054796126
178	0x3dce52a2	0.10074355
179	0x3d6e501a	0.05818186
180	0x3d6769e2	0.056497462
181	0x3c20eda6	0.009822285
182	0x3a18d90d	0.0005830683
183	0xbcf13997	-0.029446406
184	0x3d9b5163	0.07583883
185	0xbd12e50a	-0.03586296
186	0x3dd5b257	0.10434406
187	0xbbd1af02	-0.0063990364
188	0xbdd775b1	-0.10520495
189	0x3d9572f5	0.07297317
190	0x3dd18db1	0.102321036
191	0x3d96d6bb	0.07365175
192	0xbda8a9a1	-0.08235479
193	0x3dc9312e	0.098238334
194	0x3d87af3d	0.06625221
195	0x3d3d2fbe	0.04618811
196	0xbd805436	-0.06266062
197	0x3ddc7acd	0.1076561
198	0x3dda724a	0.1066633
199	0xbdd338b4	-0.1031355
200	0x3dc02008	0.093811095
201	0xbd747271	-0.059679452
202	0xbd648efe	-0.05580043
203	0x3d6a9627	0.057272103
204	0xbc7d3e97	-0.015456817
205	0xbd089910	-0.033349097
206	0x3d287f34	0.041136935
207	0xbc91f26d	-0.017815793
208	0xbcbd7e54	-0.023131527
209	0xbd90bcdc	-0.07067272
210	0xbd924d4f	-0.07143652
211	0x3dcdcbc0	0.10048628
212	0x39426003	0.00018537049
213	0x3d412076	0.047150098
214	0x3da58438	0.08081859
215	0xbdda397f	-0.10655498
216	0x3dbc2425	0.091865815
217	0xbdcce2c8	-0.100041926
218	0xbd5a8f37	-0.053359237
219	0xbdbdb129	-0.09262306
220	0x3d3656da	0.04451642
221	0xbdaf77bd	-0.0856776
222	0xbd8d0fca	-0.06887777
223	0xbdcd94ff	-0.100381844
224	0xbdbe8f16	-0.09304635
225	0x3d3c075e	0.045905463
226	0xbb9fb830	-0.004874252
227	0x3d039171	0.032121126
228	0x3dc68378	0.096930444
229	0x3ccbc47a	0.02487396
230	0x3d664c28	0.056224972
231	0xbd48ef9b	-0.04905663
232	0x3d0c75f9	0.034292195
233	0xbc00d8cc	-0.007864188
234	0xbcea8470	-0.028627604
235	0x3db3815e	0.08764909
236	0xbdca6bf1	-0.098838694
237	0xbc26cb88	-0.010180362
238	0x3c04b6f8	0.008100264
239	0xbd4b4bc2	-0.049632795
240	0x3d97aaf6	0.07405655
241	0xbdc01dc6	-0.09380679
242	0x3bf6b6fc	0.0075291377
243	0xbc4bf82b	-0.012449305
244	0x3d956dc5	0.072963275
245	0xbc58e5d1	-0.013238386
246	0xbdd96a52	-0.10615982
247	0xbd399df6	-0.04531666
248	0x3cca470f	0.024692087
249	0xbbae4e62	-0.0053194026
250	0xbd314c52	-0.043285675
251	0x3c99f047	0.018791331
252	0xbd8624b0	-0.06549966
253	0x3bf6ea6e	0.0075352704
254	0x3d9f7e27	0.077877335
255	0x3dbe543a	0.09293409

conv1.bias f4 [64]
0	0x3d1f0b4a	0.038829125
1	0xbdb0a6a1	-0.08625532
2	0x3dbb3be6	0.09142284
3	0x3d3066bd	0.04306673
4	0x3d92a0cd	0.071595766
5	0xbc7746ed	-0.015092594
6	0xbd2122a5	-0.03933968
7	0xbdb911b2	-0.09036578
8	0xbd0f252f	-0.03494757
9	0xbdd0cec6	-0.10195689
10	0x3b057946	0.0020366474
11	0x3d881360	0.066443205
12	0xbdb33268	-0.087498486
13	0x3c1513ee	0.00909899
14	0x3d3cbfab	0.046081226
15	0x3d809021	0.062774904
16	0x3d978afa	0.073995546
17	0xbd91023a	-0.07080503
18	0xbc878745	-0.016543994
19	0x3a892ff6	0.0010466564
20	0x3ddbfc01	0.10741425
21	0xbd8f5424	-0.069984704
22	0x3d6888a1	0.056770924
23	0xbd4b77f0	-0.04967493
24	0x3d8a962a	0.06766923
25	0xbd38bbc2	-0.045100935
26	0xbdcb42ff	-0.09924888
27	0xbb0d9d1c	-0.0021608537
28	0x3d8d6d4c	0.06905612
29	0xbcc96865	-0.024585912
30	0x3af25556	0.0018488567
31	0xbd98e932	-0.074663535
32	0xbcf3745b	-0.029718569
33	0xbd9f271d	-0.07771132
34	0xbdd2160c	-0.10258111
35	0xbdd81784	-0.1055136
36	0xbca037ef	-0.019557921
37	0xbad4fda8	-0.0016249912
38	0xbda0ade8	-0.0784567
39	0xbc9d5703	-0.01920653
40	0xbd866613	-0.06562438
41	0xbd4a47d4	-0.049384907
42	0xbdde00d7	-0.10840004
43	0xbbbf5b94	-0.0058397744
44	0x3dcb48b4	0.099259764
45	0x3d868214	0.06567779
46	0x3dc7310b	0.09726151
47	0x3d0eabaf	0.0348317
48	0x3dab1c33	0.08354988
49	0x3cddf8ad	0.027096117
50	0x3d9ca1d1	0.076480515
51	0x3ceb5a12	0.028729472
52	0xbd2eea8f	-0.04270416
53	0xbd16ecc4	-0.03684689
54	0x3d81ba0c	0.06334314
55	0xbcad56f1	-0.021159621
56	0x3d9a10be	0.075227246
57	0xbdbc8025	-0.09204129
58	0xbc853e1a	-0.016264964
59	0xbd1ba42f	-0.037998375
60	0x3ddfa775	0.10920612
61	0x3de42922	0.11140658
62	0xbb54076f	-0.0032353064
63	0xbdbc424e	-0.09192334

conv2.weight f4 [32, 64, 5, 5]
0	0x3b6157f1	0.0034384693
1	0xbbdf7e0d	-0.0068204463
2	0xbc4cfde6	-0.012511706
3	0x39bfe3d7	0.00036600113
4	0xbbcde1cb	-0.00628302
5	0x3c812a76	0.015767317
6	0x3cae1cee	0.02125403
7	0xbca0e5b3	-0.01964078
8	0x3c3bdc1b	0.011466051
9	0x3c32b37a	0.010907048
10	0xbb7ae228	-0.0038281772
11	0x3cc15178	0.023598418
12	0x3bced0d0	0.0063115135
13	0x3c1e9b04	0.009680513
14	0xba847445	-0.0010105452
15	0xbb316dff	-0.002707362
16	0x3c610bac	0.013735693
17	0x3a581b34	0.00082437997
18	0x3c310260	0.010803789
19	0xbbaeb17e	-0.0053312173
20	0x3cbcf71e	0.023067053
21	0xbcaaffc4	-0.020873912
22	0x3ac40b47	0.0014956974
23	0xbbb47010	-0.005506523
24	0xbc3c7880	-0.011503339
25	0x3bd9db97	0.0066484916
26	0xbc1312de	-0.008976666
27	0x3c11cbd5	0.008898695
28	0x3cd0f8e3	0.025509303
29	0x3a45e0cd	0.00075484515
30	0x3cd2dfb9	0.025741445
31	0xbc36bb58	-0.011153065
32	0x3bdfd74f	0.0068310867
33	0xbaac2983	-0.001313493
34	0x3cf8c507	0.030367387
35	0xbcdea324	-0.0271774
36	0xbba27aa8	-0.0049584694
37	0xbc1a4b72	-0.009417402
38	0xbca3887f	-0.019962547
39	0x3c271cdc	0.010199752
40	0xbca457a2	-0.020061318
41	0xbc99ca04	-0.018773086
42	0x3b06ac26	0.0020549386
43	0x3c5d8da7	0.013522542
44	0xbac57893	-0.0015065841
45	0xbbad1f47	-0.0052832696
46	0x3b440f3c	0.0029916307
47	0x3c949a37	0.018139942
48	0x3c26f8ca	0.010191152
49	0x3a422de2	0.000740735
50	0x3c8cb734	0.017177202
51	0x3c7d9079	0.0154763395
52	0xbc67a189	-0.014137634
53	0xbc1dc163	-0.0096286265
54	0x3bab1ccc	0.0052219387
55	0x3cd455bb	0.025919786
56	0x3c5ec06c	0.013595682
57	0x3bf5bd39	0.0074993637
58	0x3bd63e42	0.0065381834
59	0xbc40243a	-0.011727387
60	0xbca0bf2a	-0.019622404
61	0xbc89eff9	-0.01683806
62	0x3cb46277	0.022019608
63	0x3c10a852	0.008829193
64	0x3c136a24	0.008997474
65	0xbc68bbb5	-0.014204909
66	0x3cbfd577	0.023417218
67	0x3c97cc79	0.018530117
68	0x3b3dc66f	0.0028957387
69	0x3b8b7e42	0.0042569945
70	0x3bf5c3c2	0.007500143
71	0x3ccbf25c	0.02489584
72	0x3c7464d3	0.0149166165
73	0x3c3258a4	0.010885391
74	0xbc85cd87	-0.016333355
75	0xbc20539a	-0.009785557
76	0x3d032fb9	0.032027934
77	0x3b81bdb9	0.0039593843
78	0xbc389462	-0.011265846
79	0xbb60267e	-0.003420263
80	0x3c743729	0.014905729
81	0xbbb78851	-0.005600967
82	0x3c1410d8	0.009037219
83	0xbc516205	-0.012779717
84	0xbb8a49bb	-0.004220215
85	0xbc29091b	-0.010317112
86	0xbc98bd8f	-0.018645076
87	0xbcc15018	-0.023597762
88	0xbabca0d1	-0.0014391189
89	0xb9bea403	-0.00036361822
90	0x3c556cd1	0.013026432
91	0x3c8228b9	0.015888559
92	0xbd1c0c0c	-0.038097426
93	0x3b5a4b89	0.0033309183
94	0xbc1fc4fa	-0.009751553
95	0x3b3d95da	0.002892843
96	0x3c5573c0	0.013028085
97	0x3b8015ed	0.0039088638
98	0xbb7750b1	-0.0037737305
99	0x398a9027	0.00026428813
100	0x3c3837eb	0.011243801
101	0xbbaa672d	-0.005200288
102	0xbc6fdb81	-0.014639736
103	0x3ae33918	0.0017335741
104	0x3b9e9dd0	0.00484059
105	0xbc8debe9	-0.017324405
106	0xbca5f710	-0.02025941
107	0x3c7f4c33	0.015582132
108	0x3cb15bfe	0.02165031
109	0x3c1e5c3f	0.009665548
110	0x3a675b6f	0.00088255754
111	0xbc47dfb1	-0.012199328
112	0xbc56595d	-0.013082829
113	0xbca39eb6	-0.01997314
114	0xbc3f64e3	-0.011681768
115	0xbbd748cb	-0.006569957
116	0x3c91f1b5	0.01781545
117	0xbbdc5363	-0.0067238077
118	0xbc9c570b	-0.019084474
119	0x3c5ffd06	0.013671165
120	0x3ccb4078	0.024811015
121	0x3b3397c1	0.0027403685
122	0x3c83c617	0.016085668
123	0xbcbb8c62	-0.022894088
124	0x3c03e7a7	0.008050836
125	0xbcedbd8f	-0.029021053
126	0x38c13b95	9.214055e-05
127	0x3bd8a40d	0.0066113533
128	0x3c940daa	0.018072922
129	0x3ca02fee	0.019554105
130	0xbbf1dd2b	-0.0073811016
131	0x3c8f56c7	0.017497433
132	0x3bac6c50	0.0052619353
133	0x3c6f3c92	0.014601843
134	0xbcf6b2c9	-0.030114548
135	0xbc10006b	-0.008789162
136	0x3cd8d7b0	0.026470035
137	0xbb9a59a1	-0.0047103916
138	0x3c5ac914	0.013353605
139	0xbc6363c8	-0.01387877
140	0x3c9edc32	0.019392107
141	0xbbceb947	-0.006308708
142	0x3be763e8	0.0070614703
143	0x3c5a9035	0.013340046
144	0x3cb8027c	0.022462122
145	0x3c15c13c	0.009140309
146	0x3caed6ff	0.021342753
147	0xbcd4468c	-0.025912546
148	0xbbd4075c	-0.006470604
149	0x38c80f06	9.5395415e-05
150	0xbcb063ad	-0.021531904
151	0x3c83fd2e	0.016111936
152	0x3ce6d192	0.028176103
153	0x3cdcf3e8	0.026971772
154	0x3cb202f6	0.021729928
155	0x3c071b44	0.008246247
156	0xbc67b0f5	-0.014141311
157	0x3c900d76	0.017584544
158	0x3cf114b1	0.029428812
159	0xbbccb6c5	-0.0062473738
160	0x3c8b1ec8	0.016982451
161	0xbbdfb542	-0.0068270275
162	0x3c81f18f	0.015862254
163	0x3bcb9182	0.0062124142
164	0xbccf33f5	-0.02529333
165	0x3d198216	0.037477575
166	0x3cc2b4ef	0.023767916
167	0x3bba38ce	0.005683041
168	0xbd0705ba	-0.032964446
169	0x3bfd0bd9	0.0077223596
170	0x3c7b755f	0.015347808
171	0xbbeea61b	-0.007282985
172	0xbb61ea96	-0.00344721
173	0xbc7f32b5	-0.015576054
174	0xbc1eb551	-0.009686784
175	0xbbedaf29	-0.0072535467
176	0xbcc4be0e	-0.024016406
177	0xbc160644	-0.009156767
178	0xbb8b85b1	-0.0042578806
179	0xbc934554	-0.017977394
180	0xba956ece	-0.001140082
181	0xbc4c2806	-0.012460714
182	0xbc9e3b3d	-0.019315356
183	0x3cc6ecf4	0.02428291
184	0xbc5ff89c	-0.013670113
185	0xbc931f9a	-0.017959405
186	0xbb96f4cd	-0.0046068192
187	0x3c49235c	0.012276497
188	0x3bc8e78b	0.0061311177
189	0xbcb3812f	-0.021912185
190	0x3c9d83a4	0.01922781
191	0xbc9cccf3	-0.019140696
192	0x3c514232	0.01277213
193	0xbc866722	-0.0164066
194	0xb9a5fb28	-0.00031658378
195	0x3a4b2d08	0.00077505456
196	0xbca1a5b8	-0.019732341
197	0x3bb9e0ae	0.005672536
198	0xbca9079a	-0.020633508
199	0xbc6f96e3	-0.014623377
200	0xbc41d0ec	-0.011829596
201	0xbc6eaa14	-0.014566917
202	0x3bef7372	0.0073074633
203	0xba5e42bb	-0.00084785715
204	0xbbe3040b	-0.006927972
205	0x3ca2e906	0.019886505
206	0xbaa1af54	-0.0012335577
207	0x3bc18116	0.005905281
208	0xbb02a9b1	-0.001993757
209	0xbbcad2f2	-0.0061896974
210	0x3ca0c88a	0.019626874
211	0xbc5086dc	-0.0127274655
212	0x3a89c93a	0.0010512241
213	0x3c02f130	0.007992074
214	0xbc63f044	-0.013912264
215	0x3bd37128	0.0064526983
216	0xba1ad1de	-0.00059059064
217	0x3ccb541e	0.024820384
218	0x3c8f29f7	0.017476065
219	0x3c88bfb0	0.016692966
220	0xbcb960cc	-0.022629164
221	0xb9af4fd3	-0.00033438075
222	0x3c12bd35	0.008956243
223	0x3c6f9768	0.0146235
224	0xbc6da39b	-0.014504339
225	0x3a9880bf	0.0011635049
226	0x39a1429a	0.00030757935
227	0xbcb1c181	-0.021698715
228	0x3ca21d5a	0.019789387
229	0xbba58df9	-0.005052325
230	0xbc825676	-0.015910368
231	0x3cb1f4ae	0.021723118
232	0x3b2fd88d	0.0026831955
233	0xbc505e90	-0.012717858
234	0xbbaaea39	-0.00521591
235	0x3bdc6fdd	0.0067272023
236	0x3cadde79	0.021224247
237	0xbc9ea994	-0.01936797
238	0xbbbcaf2e	-0.0057581877
239	0x3c2f9fc7	0.010719246
240	0xbbcbea22	-0.006222979
241	0x3c8f345d	0.017481023
242	0xbc8f4ccc	-0.017492674
243	0x3ccb41a2	0.02481157
244	0x3ade0aef	0.0016940514
245	0x3cb5eb49	0.02220692
246	0x3bc13d78	0.00589722
247	0x3bca07fd	0.006165503
248	0x3c2275a0	0.009915739
249	0x3c83a988	0.01607205
250	0x3b21422d	0.0024606094
251	0xba9a7a1e	-0.0011785661
252	0xbc4e764f	-0.012601449
253	0x3cbd2f6f	0.023093907
254	0x3c9fc2ad	0.019502008
255	0x3c767b1a	0.015043998

conv2.bias f4 [32]
0	0x3c7181cc	0.014740419
1	0x3afbf23a	0.0019221969
2	0xbc11d48a	-0.008900771
3	0x3cc0922a	0.023507196
4	0xbbdd64f9	-0.0067564216
5	0xbc50b53e	-0.012738524
6	0xbaf2481d	-0.0018484626
7	0xbc13a705	-0.0090119885
8	0xbc8be03f	-0.017074702
9	0xbc82fcb3	-0.015989637
10	0x3affcae6	0.0019515425
11	0xbb87bfc7	-0.0041427347
12	0x3c4ffcf3	0.012694585
13	0x3c832042	0.016006593
14	0x3a2b6153	0.0006537635
15	0xbc3a3d9b	-0.011367227
16	0xbc82151e	-0.01587921
17	0x3c92941d	0.017892892
18	0x3ac664ac	0.0015136204
19	0xbca75a38	-0.020428762
20	0x3c73d173	0.01488148
21	0xbb0801ba	-0.0020752982
22	0x3c0085ff	0.007844447
23	0xbc28bf9e	-0.010299591
24	0x3bea0539	0.007141736
25	0x3cb9a10a	0.022659797
26	0xbca817c5	-0.020519147
27	0x3c9ed9ec	0.019391023
28	0xbbc14967	-0.005898643
29	0x3cd16c79	0.02556442
30	0xbcb125bf	-0.021624444
31	0x3cd176f6	0.02556942

conv3.weight f4 [1, 32, 5, 5]
0	0x3cda50e7	0.026649905
1	0x3b0bfb57	0.0021359527
2	0x3c00764e	0.007840706
3	0xbbf9479a	-0.0076074125
4	0x3d0d34da	0.03447423
5	0x3b31a606	0.0027107014
6	0x3cabc7ab	0.020969233
7	0xbabc165d	-0.0014349926
8	0x3c49928b	0.012303005
9	0x3d003de1	0.031309012
10	0xbbf51ef0	-0.0074804947
11	0xbcd03802	-0.025417332
12	0xbc5d6cf1	-0.013514743
13	0xbd01d076	-0.031692944
14	0x3c8a0f19	0.016852902
15	0x3c56f006	0.0131187495
16	0xbc94c327	-0.018159462
17	0xbc82360a	-0.015894908
18	0xbd0d8fd4	-0.034560993
19	0xbcb07781	-0.021541359
20	0xbce0c144	-0.027435906
21	0x3cc04ea4	0.023474999
22	0x39f4cb03	0.00046690562
23	0x3c727db6	0.01480048
24	0x3cd148aa	0.025547344
25	0xbcc2e6f1	-0.023791762
26	0xbcb2aa86	-0.021809828
27	0x3cb18bf2	0.021673176
28	0x3c084221	0.008316548
29	0xbc0e7abc	-0.008696254
30	0xbc5f8452	-0.013642387
31	0x3cb8b6c2	0.022548083
32	0xbcdb492c	-0.02676829
33	0xbc088284	-0.008331899
34	0xbcf8beab	-0.030364355
35	0x3b976d6a	0.0046211975
36	0x3cecb69f	0.028895674
37	0xbcb71660	-0.022349536
38	0x3d046f35	0.032332618
39	0x3c82ee37	0.01598273
40	0xbcdb76f8	-0.026790127
41	0xbc7f53c0	-0.015583932
42	0xbd0682d4	-0.03283961
43	0x38f57d97	0.00011705903
44	0x3c59044c	0.013245653
45	0xbc53f687	-0.012937195
46	0xbb5c1197	-0.003357982
47	0xbcccad3d	-0.02498495
48	0xbcdce1ce	-0.02696314
49	0xbca7ceac	-0.020484291
50	0xbbed4e0f	-0.0072419713
51	0xbc88d4bf	-0.016703008
52	0xb89fee8c	-7.6261436e-05
53	0xbb9c5bbe	-0.0047716787
54	0x3b76ea37	0.0037676224
55	0x3cd0f742	0.025508527
56	0x3cdc72c1	0.026910188
57	0xbc1e7a1b	-0.009672667
58	0xbd0040a7	-0.031311657
59	0x3cb1b119	0.021690892
60	0xbc1ad33c	-0.009449776
61	0x3cdc7c93	0.02691487
62	0x3bc581f8	0.0060274564
63	0x3c6cfe21	0.014464886
64	0x3a22a334	0.0006204129
65	0x3c6dab3d	0.014506158
66	0xbd006d01	-0.031353954
67	0xbca4d1ac	-0.02011951
68	0xbbae2648	-0.005314622
69	0xbc69aae7	-0.014261938
70	0xbcb382b7	-0.021912916
71	0x3d0cfbe1	0.034419898
72	0x3caae3ca	0.020860571
73	0xbc901aa8	-0.017590836
74	0xbc7d6c13	-0.015467661
75	0x3d0a38a5	0.033745427
76	0xbc3e3a11	-0.011610524
77	0x3c846a19	0.016163873
78	0x3d25faf5	0.040522534
79	0x3c81b96e	0.01583549
80	0xbd136146	-0.03598144
81	0xbd2d29ae	-0.042276077
82	0x3d3b7c37	0.045772757
83	0xbbbb084d	-0.0057077766
84	0x3bb36d7e	0.005475699
85	0xbd62728e	-0.05528503
86	0x3b17a011	0.0023136178
87	0x3b9fd411	0.004877575
88	0x3c0b6b66	0.0085094925
89	0x3d2c2f14	0.042037085
90	0xbd09c110	-0.033631384
91	0x3cc304d0	0.023806006
92	0xbc1a9606	-0.009435182
93	0x3c880f5e	0.01660889
94	0x3d18f1ba	0.037339903
95	0x3b250090	0.0025177337
96	0xbcaefe9d	-0.021361643
97	0x3cc5faa4	0.024167366
98	0x3c8d1e86	0.017226469
99	0xbc2c1a57	-0.010504327
100	0x3bcf6f2c	0.0063303914
101	0x3cb650d3	0.022255337
102	0xbcdce7fd	-0.02696609
103	0xbca5852f	-0.020205108
104	0xbc9df8bd	-0.019283647
105	0x3cbd6134	0.02311764
106	0x3cb9fa3f	0.022702334
107	0xbc4f1441	-0.012639106
108	0xbbce1c6e	-0.00629001
109	0x3ce5e13c	0.028061502
110	0x3b2aaadd	0.0026041784
111	0x3d0c7d1a	0.034298994
112	0xbca2038f	-0.019777087
113	0x3be1fc50	0.006896533
114	0xbc5fd7aa	-0.013662258
115	0xbcd576a7	-0.026057554
116	0x3c9bb20b	0.019005796
117	0x3d036454	0.032078102
118	0x3cb5eee3	0.022208637
119	0xbc6cf3fa	-0.014462465
120	0xbc133ba5	-0.008986388
121	0xbbe1096e	-0.006867579
122	0x3c628e64	0.013827894
123	0xbb6abe5f	-0.0035819036
124	0x3d01f629	0.031728897
125	0x3c8f1694	0.01746682
126	0x3b5df975	0.0033870612
127	0x3bb9064d	0.005646503
128	0x3caa49f0	0.02078721
129	0x3ca87cc8	0.020567313
130	0x3b802d67	0.0039116624
131	0xbcd1d7bb	-0.025615564
132	0xbd04593c	-0.032311663
133	0x3c0cfcee	0.008605225
134	0x3d07522f	0.03303736
135	0xbc9e56b1	-0.019328447
136	0x39a47bd2	0.0003137277
137	0x3c667955	0.014067014
138	0xbcf42fde	-0.029807981
139	0xbcb791ab	-0.022408327
140	0x3c96c9a3	0.018406695
141	0x3b01ed22	0.001982518
142	0xbc29c798	-0.010362528
143	0xbbda9a1c	-0.0066712033
144	0xbc390bed	-0.011294347
145	0x3c86094b	0.016361853
146	0xbc274f67	-0.010211802
147	0xbce75a41	-0.028241279
148	0xbb53a89f	-0.003229655
149	0xbcba6f19	-0.022758054
150	0x3c584bed	0.013201696
151	0x3cd04d5a	0.02542751
152	0x39064446	0.0001280467
153	0xbd03c2b0	-0.03216809
154	0x3cfb0c1c	0.030645423
155	0x3bb0a0cb	0.0053902618
156	0xbcad6c37	-0.021169765
157	0xbc08f2f4	-0.008358706
158	0x3d1203e6	0.03564825
159	0xbc43f5dc	-0.011960473
160	0x3cd9cdd5	0.026587406
161	0x3b8cff29	0.0043028784
162	0xbd0900d9	-0.033448074
163	0x3c109ffc	0.008827206
164	0x3c6cdcc7	0.014456934
165	0x3c00c108	0.007858522
166	0x39826b13	0.0002487531
167	0x3cdf608f	0.027267722
168	0xbcd7e2f8	-0.026353344
169	0xbc9c9388	-0.019113317
170	0xbae5a022	-0.0017519037
171	0x3cf14e46	0.029456269
172	0x3cbf04ba	0.023317683
173	0xbc640258	-0.013916574
174	0xbd080e2e	-0.033216648
175	0x3cc280f8	0.023743138
176	0x3cbc5b6e	0.022992816
177	0x3ccf7aad	0.025327051
178	0x3d06636f	0.03280967
179	0x3cb21868	0.021740153
180	0x3cb17f9b	0.021667292
181	0x3b854367	0.004066873
182	0x3be4bccf	0.0069805156
183	0x3cf15220	0.029458106
184	0xbcfb5ad0	-0.030682951
185	0x3b9857f1	0.0046491553
186	0xbc3d4a91	-0.011553423
187	0x3cfbfe20	0.030760825
188	0x3c6749fc	0.01411676
189	0x3d0d4f50	0.034499466
190	0x3c9cc995	0.01913909
191	0x3cc8e683	0.024523979
192	0x3b7165e9	0.0036834425
193	0x3c1b3316	0.009472629
194	0xbbde00fc	-0.0067750197
195	0xbb542a8b	-0.003237399
196	0xbc8e5505	-0.017374525
197	0xbc9ed8ab	-0.019390425
198	0xbc79ad71	-0.015239106
199	0x3cf8fb16	0.030393165
200	0xbbd7aa20	-0.00658156
201	0x3cfd1861	0.030895414
202	0x3d02f831	0.031974975
203	0x3ce93e9c	0.028472237
204	0xba1c29f8	-0.00059571816
205	0xbd03ed1c	-0.032208547
206	0x3cd43b56	0.0259072
207	0x3bbf100c	0.0058307704
208	0xbc849e44	-0.016188748
209	0x3ce438f0	0.027859181
210	0x3c1933e7	0.009350753
211	0x39d38685	0.0004034528
212	0x3cbeccde	0.023291048
213	0x3cc18662	0.023623649
214	0x3ba92d53	0.005162874
215	0x3c0a9d1f	0.008460312
216	0xbba1c1e3	-0.004936443
217	0x3c0fa5d7	0.008767567
218	0xbd0552ee	-0.03254979
219	0x3c27bb1e	0.010237483
220	0xbc9d66fe	-0.01921415
221	0x3b08044f	0.0020754521
222	0x3c2defc9	0.010616251
223	0x3cd5880f	0.026065854
224	0xbd015e80	-0.031584263
225	0x3cd08ce6	0.02545781
226	0x3cb16cc9	0.021658318
227	0xbd02ba48	-0.031915933
228	0xbcc5d14c	-0.024147652
229	0x3d138685	0.03601696
230	0x3c89d6a7	0.016825987
231	0x3c0d2adb	0.008616175
232	0x3d019ef5	0.031645734
233	0x3cfd43e4	0.030916162
234	0x3c25cd4e	0.010119749
235	0x3cdc800e	0.02691653
236	0xbc1040ec	-0.008804541
237	0x3c8c2e79	0.017112004
238	0xbd02b87a	-0.03191421
239	0xbac36347	-0.0014906906
240	0x3b1aaaf9	0.0023600443
241	0x3c5fbd23	0.013655934
242	0xbcf9bd68	-0.030485824
243	0x3cd8d1b2	0.026467178
244	0xbb8c1463	-0.004274891
245	0x3c77979c	0.01511183
246	0xbbba291c	-0.00568117
247	0x3cd9defb	0.026595583
248	0x3ccaa113	0.02473501
249	0x3c9c453d	0.019075984
250	0xbc6f9b20	-0.014624387
251	0xbc882eb5	-0.016623834
252	0x3b0192c9	0.0019771329
253	0x3cfbb973	0.030728078
254	0x3d0b4cd0	0.0340088
255	0x3b2152b5	0.0024615948
